model/mnist_cnn.pt (torch, 668575 bytes, 6 tensors)

weight f4 [32, 1, 5, 5]
0	0x3d9f6d0e	0.077844724
1	0xbe287598	-0.16451108
2	0xbe3034b3	-0.17207603
3	0xbdd1656c	-0.10224423
4	0xbeb199ea	-0.3468774
5	0x3e3d135a	0.18464413
6	0x3d1555c1	0.036458734
7	0x3e0f37b0	0.13986087
8	0x3d0df549	0.03465775
9	0xbd26786e	-0.040642194
10	0x3de195df	0.11014914
11	0x3e1a6731	0.15078427
12	0x3e8b3878	0.2719152
13	0x3ddf0072	0.10888757
14	0x3d5d771e	0.054068677
15	0xbe09db65	-0.13462599
16	0xbc911056	-0.017707985
17	0x3d244ee8	0.040114313
18	0x3e685268	0.22687685
19	0x3e081d05	0.1329232
20	0xbe8072cb	-0.2508758
21	0xbe96ff8c	-0.29491842
22	0xbe6744d3	-0.22584848
23	0xbe5c3cd8	-0.21507585
24	0xbd517880	-0.05114031
25	0xbd51904c	-0.051163003
26	0x3daca691	0.084302075
27	0x3d033079	0.03202865
28	0xbeac6893	-0.33673534
29	0x3cbe87a8	0.023258045
30	0xbbfd64be	-0.0077329567
31	0x3e5b2105	0.21399315
32	0x3dfda049	0.123840876
33	0xbe8b958e	-0.2726254
34	0xbea681d8	-0.32520938
35	0xbe3ce5d5	-0.18447049
36	0x3e5ced88	0.21574986
37	0x3c3dbcab	0.0115806265
38	0x3d7439ba	0.059625365
39	0xbe3aafde	-0.1823115
40	0x3dbebe22	0.09313609
41	0xbdd7152b	-0.10502084
42	0x3e42c5d8	0.19020784
43	0x3d100adb	0.035166603
44	0xbdf82899	-0.121171184
45	0x3ccf1d29	0.02528246
46	0xbddc23e8	-0.10749036
47	0x3e28bdbf	0.16478632
48	0x3d629eb6	0.05532714
49	0xbc02c7c9	-0.007982203
50	0xbe6a5903	-0.22885518
51	0xbe6f7b2e	-0.23386833
52	0xbcebe4ec	-0.028795682
53	0xbd915163	-0.070956014
54	0x3e303daf	0.1721103
55	0x3db17d2b	0.08666452
56	0xbde83283	-0.11337759
57	0xbe00902d	-0.12554999
58	0x3e7abb80	0.24485588
59	0x3db69ce2	0.08916642
60	0xbe1d947b	-0.15388672
61	0x3dfcf039	0.12350506
62	0x3e46e171	0.19421937
63	0x3e813872	0.25238377
64	0xbe8d5cc4	-0.27609837
65	0xbd6d6899	-0.05796108
66	0xbbf3dfe6	-0.0074424623
67	0xbc93f716	-0.018062156
68	0xbe9ee2a4	-0.31032288
69	0xbec3729a	-0.38173372
70	0x3d5a77f3	0.05333705
71	0xbdae59e6	-0.085132405
72	0x3ccedd25	0.025251934
73	0xbd7598c4	-0.05996014
74	0x3e101fb8	0.140746
75	0x3e12d5d5	0.14339383
76	0x3dd22c4d	0.10262356
77	0x3d9cb85a	0.0765235
78	0xbe28b979	-0.16477002
79	0x3e37e04e	0.17956659
80	0xbe3e7359	-0.18598689
81	0xbe698b54	-0.22807056
82	0xbdb0a7fc	-0.086257905
83	0x3c98c956	0.018650692
84	0x3e75824e	0.23975489
85	0xbe8e3f68	-0.2778275
86	0xbedf9964	-0.43671715
87	0xbde45f96	-0.11151044
88	0xbdc97305	-0.09836391
89	0x3e231ea2	0.15929654
90	0xbe2df187	-0.16986667
91	0xbe9d8b56	-0.30770367
92	0xbd86f5ec	-0.065898746
93	0xbda27832	-0.07933082
94	0xbe6656d6	-0.22494063
95	0xbe002a42	-0.1251612
96	0x3de22e5f	0.11044001
97	0x3d02b42d	0.03191011
98	0xbe1a0328	-0.15040267
99	0xbe08c0d3	-0.13354807
100	0x3e54c88d	0.20779629
101	0x3b4ca854	0.003122826
102	0x3d8cf565	0.06882743
103	0x39c80dd2	0.0003815727
104	0xbe3c1434	-0.18367082
105	0xbe5967a5	-0.21230944
106	0x3e382e8a	0.17986503
107	0xbd3b5285	-0.045732994
108	0x3d44a4a0	0.04800856
109	0x3c4776b5	0.012174298
110	0xbc954dca	-0.01822557
111	0x3e18b9c9	0.14914621
112	0x3e24287d	0.1603107
113	0xbe3b95db	-0.18318884
114	0xbd806239	-0.062687345
115	0x3d8c5927	0.06852942
116	0x3de3007b	0.11084076
117	0x3dd0ad94	0.101893574
118	0xbe4096da	-0.18807545
119	0xbe7946e2	-0.24343446
120	0xbe1f424a	-0.15552631
121	0x3cde656a	0.027147967
122	0x3e616a24	0.22013146
123	0xbdfd8c11	-0.12380231
124	0x3d1d1722	0.03835214
125	0xbe31994c	-0.17343634
126	0xbeb7455b	-0.35795102
127	0xbe055dca	-0.13024059
128	0x3d95f9d7	0.07323044
129	0x3df02117	0.117250614
130	0xbe108853	-0.14114504
131	0x3dde567a	0.10856338
132	0x3ea89b10	0.32930803
133	0x3e4b6c74	0.1986559
134	0x3d9100a1	0.07080198
135	0x3e6a262e	0.22866127
136	0x3e4a86c8	0.19777977
137	0x3cc6fac7	0.024289502
138	0xbe618e04	-0.22026831
139	0xbe87787c	-0.2645911
140	0xbd95fee0	-0.07324004
141	0xbdd4f0b9	-0.10397477
142	0xbe982548	-0.29715943
143	0xbd331087	-0.043716934
144	0x3d279825	0.04091658
145	0xbda9cf95	-0.08291546
146	0x3cfd73a5	0.030938933
147	0x3d1ad134	0.037797168
148	0x3dda3d51	0.106562264
149	0x3d9b42f9	0.075811334
150	0xbdd7663c	-0.105175465
151	0x3e395cf7	0.1810187
152	0x3d5c27cd	0.053748894
153	0x3d916db6	0.07101004
154	0xbd9d0764	-0.07667425
155	0xbe5f5147	-0.21808349
156	0xbe8eb74e	-0.27874225
157	0xbe25c43d	-0.1618814
158	0x3bf3de98	0.0074423067
159	0xbe2d9bf9	-0.1695403
160	0xbd5bc32e	-0.053652935
161	0xbbfb2f90	-0.007665582
162	0xbd3019ef	-0.042993482
163	0xbd634d5a	-0.05549369
164	0xbea76dc3	-0.3270093
165	0x3e2bd091	0.1677878
166	0xbcd29780	-0.025707006
167	0xbd4436aa	-0.047903694
168	0xbe55ddbd	-0.20885368
169	0xbe0cd01e	-0.13751265
170	0x3d686fd9	0.05674729
171	0x3e525a38	0.20542228
172	0x3e1a8010	0.15087914
173	0x3e276983	0.16348843
174	0x3e8ef879	0.27923945
175	0x3e2aea78	0.16691005
176	0x3e76e646	0.2411128
177	0x3de4c170	0.11169708
178	0xbcd8eafa	-0.026479233
179	0x3e2498a4	0.16073853
180	0xbd353f56	-0.044249855
181	0x3c8570b1	0.016289087
182	0xbe986247	-0.2976248
183	0xbe57faf6	-0.21091828
184	0xbe83494f	-0.25641868
185	0x3e16f470	0.14741683
186	0xbe8cc6dc	-0.27495468
187	0xbeb9c264	-0.3628112
188	0xbd8f812c	-0.070070595
189	0xbe107a18	-0.14109075
190	0x3ccfe3a1	0.025377097
191	0xbddfaa72	-0.10921182
192	0xbda4dba2	-0.08049704
193	0x3d38d5de	0.045125835
194	0x3e6004cb	0.21876828
195	0xbd726808	-0.059181243
196	0x3e78d9c6	0.24301824
197	0x3e78ebd6	0.24308714
198	0x3e6883d4	0.22706538
199	0xbdcc4b9c	-0.09975359
200	0xbc4a1d72	-0.012336122
201	0xbe5afd2f	-0.21385644
202	0x3e3640d9	0.17798175
203	0xbcd5546f	-0.026041238
204	0x3dad0517	0.084482364
205	0xbe11d7e0	-0.14242506
206	0xbda0cb70	-0.078513026
207	0x3bc01804	0.005862238
208	0x3de51084	0.11184791
209	0x3df62148	0.12018067
210	0x3c363dc6	0.011123126
211	0x3cf3c84d	0.029758597
212	0xbe8323bb	-0.25613198
213	0x3e013108	0.1261636
214	0x3e76af51	0.24090315
215	0x3e46239d	0.19349523
216	0x3df5e493	0.12006488
217	0xbe7c7351	-0.24653365
218	0xbdf04003	-0.11730959
219	0x3e86cd76	0.2632863
220	0xbe22b498	-0.15889204
221	0x3dd45acd	0.103688814
222	0xbe9d4531	-0.3071685
223	0xbe44fda6	-0.19237384
224	0x3e5470a8	0.207461
225	0xbe4c60f1	-0.19958855
226	0x3be584d7	0.007004361
227	0x3e8177f4	0.2528683
228	0x3e748975	0.2388056
229	0x3e33678f	0.17519973
230	0xbd75bf0c	-0.05999665
231	0xbe151746	-0.1455966
232	0x3e8b4b3a	0.2720583
233	0x3cf63bdb	0.030057838
234	0xbdedbbf6	-0.11608116
235	0x3d02b13d	0.03190731
236	0xbe14ba0d	-0.14524098
237	0x3e1e0b88	0.15434086
238	0x3e6a830d	0.22901554
239	0xbe100134	-0.14062959
240	0xbe7c618e	-0.24646589
241	0xbe499300	-0.19684982
242	0xbbf68f59	-0.0075244126
243	0x3d6e9a35	0.058252532
244	0xbdffc472	-0.12488641
245	0xbe0c0841	-0.13675024
246	0xbed9717a	-0.42469388
247	0xbe745b76	-0.23863015
248	0xbdc4eb58	-0.09615201
249	0x3e37975d	0.17928834
250	0x3deaef04	0.1147137
251	0xbe147485	-0.14497574
252	0xbd607890	-0.054802477
253	0x3d94f325	0.07272939
254	0xbd6bff92	-0.057616778
255	0xbe11f2cc	-0.14252776

bias f4 [32]
0	0xbd0bba7e	-0.0341134
1	0x3d116538	0.03549692
2	0xbd21c258	-0.03949198
3	0x3d9f8711	0.07789434
4	0xbe56cd11	-0.20976664
5	0xbe2c7395	-0.16840966
6	0xbcba271e	-0.02272373
7	0xbe142391	-0.14466693
8	0xbe80c0f3	-0.2514721
9	0xbe0859c4	-0.13315493
10	0xbdd0c00e	-0.101928815
11	0xbda0b3e4	-0.078468114
12	0xbc99f9cf	-0.018795876
13	0x3d86b3ba	0.06577249
14	0xbc8e0ca6	-0.017340016
15	0xbdf7e7cb	-0.12104758
16	0x3d6871b5	0.056749064
17	0xbcf6a80e	-0.030109432
18	0xbd46694b	-0.04844026
19	0xbda1322f	-0.078709
20	0x3e1c22f9	0.15247716
21	0x3d16e6bf	0.03684115
22	0xbd8e770f	-0.069563024
23	0xbe26682f	-0.1625068
24	0xbe4c75c3	-0.19966798
25	0xbe0e52d3	-0.13898782
26	0xbd8d1479	-0.068886705
27	0xbdac481d	-0.08412192
28	0xbe773829	-0.24142517
29	0xbe2a1b57	-0.16611992
30	0xbdcedc2d	-0.10100589
31	0x3d9f4d29	0.07778389

weight f4 [128, 32, 5, 5]
0	0x3e4031c5	0.18768986
1	0x3db70b63	0.08937719
2	0x3d53240c	0.05154805
3	0xbd8e11f9	-0.06937022
4	0xbd429ed9	-0.04751477
5	0xbc99ff29	-0.018798428
6	0x3d962aa3	0.07332351
7	0x3e13f4b9	0.14448823
8	0x3da33fdf	0.07971167
9	0x3c8621e6	0.016373586
10	0xbcf0f5f1	-0.029414149
11	0xbe0f7fe1	-0.14013626
12	0xbe2d9849	-0.16952623
13	0xbdfb9cff	-0.12285804
14	0xbe023d1e	-0.12718627
15	0x3d6bac52	0.057537384
16	0xbd54f278	-0.05198905
17	0xbe001a96	-0.12510142
18	0xbe266908	-0.16251004
19	0xbdd45e61	-0.10369564
20	0xbd94c4b9	-0.07264084
21	0xbb6ed91d	-0.0036445328
22	0x38c4d667	9.385944e-05
23	0xbb2b5e6c	-0.002614881
24	0xbdd2b13d	-0.10287712
25	0xbc2a1d69	-0.0103829885
26	0xbcdfd29b	-0.027322104
27	0x3c4a8a0d	0.012362015
28	0x3d20ea03	0.03928567
29	0xbd5ad208	-0.053422958
30	0xbd9a937c	-0.07547662
31	0xbc7759cc	-0.015097093
32	0xbd6026d8	-0.054724544
33	0x3c031e93	0.008002895
34	0xbdb0cee1	-0.08633209
35	0xbd7375ca	-0.059438504
36	0xbd8d0c1f	-0.068870775
37	0xbd5f2eb7	-0.05448791
38	0xbdb62fea	-0.08895858
39	0xbd945748	-0.0724321
40	0x3dc95bf6	0.09831993
41	0x3c33a645	0.010964935
42	0xbb900a9b	-0.0043957955
43	0xbd36831b	-0.044558626
44	0xbdb7198f	-0.08940422
45	0x3de8a718	0.113599956
46	0x3cc47ec3	0.023986226
47	0xbb8c9e0b	-0.004291301
48	0xbc25b220	-0.010113269
49	0xbd630dc5	-0.055433054
50	0xbd36ff08	-0.04467681
51	0x3cb3640d	0.021898294
52	0x3cf27b03	0.029599672
53	0xbdab868a	-0.08375271
54	0x3ca0a604	0.019610412
55	0xbd4808e7	-0.048836615
56	0xbd7e8343	-0.0621369
57	0xbd083275	-0.033251245
58	0xbaa9d880	-0.0012958199
59	0xbcbb50bc	-0.022865646
60	0xbdb58d31	-0.08864821
61	0x3cd0c050	0.025482327
62	0x3d8efcfd	0.069818474
63	0xbd977092	-0.07394518
64	0xbdb2426c	-0.08704075
65	0xbddaacef	-0.10677516
66	0xbd33772c	-0.043814823
67	0xbc44f560	-0.012021393
68	0xbd8847a9	-0.06654293
69	0xbda8bbd4	-0.0823895
70	0xbd786a50	-0.060648263
71	0xbda1d569	-0.07902033
72	0xbd18e170	-0.03732437
73	0xbdd3d025	-0.10342435
74	0xbd99f4cd	-0.07517395
75	0x3d4d6580	0.050145626
76	0x3ce035a4	0.027369328
77	0x3b28d89a	0.002576387
78	0xbcf2f6dc	-0.029658727
79	0xbcbef3a8	-0.023309544
80	0x3d94e739	0.07270665
81	0x3d492387	0.049106147
82	0x3c4793ca	0.012181232
83	0xbd243172	-0.040086217
84	0xbd9b4c7c	-0.075829476
85	0xbe1a2c4c	-0.1505596
86	0xbd6c0671	-0.05762333
87	0xbd5abcbd	-0.05340265
88	0xbbaffc13	-0.0053706258
89	0xbcf9021f	-0.03039652
90	0xbdc63cf9	-0.09679598
91	0xbd0918a7	-0.033470776
92	0xbd1e8820	-0.038704038
93	0xbd3100db	-0.043213706
94	0xbcac3119	-0.021019505
95	0x3dd8a645	0.105785884
96	0x3ca08f34	0.019599535
97	0x3c2b0ad6	0.010439595
98	0xbcc742d8	-0.024323866
99	0xbd7963f0	-0.060886323
100	0x3c59db91	0.013296978
101	0x3d842c1c	0.06453726
102	0x3cabe269	0.020981984
103	0x3c53b937	0.012922577
104	0xbd8e2053	-0.06939759
105	0xbdefa909	-0.11702163
106	0xbd751aee	-0.059840135
107	0xbd048458	-0.032352775
108	0xbd1cfd83	-0.038327705
109	0xbcfcdbea	-0.030866582
110	0x3b84c0eb	0.004051318
111	0xbd44411b	-0.047913652
112	0xbc93078e	-0.017947938
113	0xbda1642b	-0.07880434
114	0xbdafee52	-0.08590378
115	0x3da8c3b1	0.0824045
116	0xbc1d11b3	-0.009586739
117	0x3c638d0f	0.013888611
118	0xbd891576	-0.066935465
119	0xbd4fadd0	-0.05070287
120	0x3d9e813b	0.077394925
121	0x3d988f58	0.07449216
122	0xbb21b903	-0.0024676926
123	0xbcea3700	-0.02859068
124	0x3cac6a01	0.02104664
125	0x3cd1334e	0.02553716
126	0xbd028c6e	-0.031872205
127	0x3d50820b	0.05090527
128	0x3bc1c4c8	0.0059133507
129	0xbd0421aa	-0.032258667
130	0xbdf94846	-0.12171988
131	0xbde4532d	-0.11148677
132	0xbd8f8f18	-0.07009715
133	0xbcafab7b	-0.021444073
134	0x3cd3ae31	0.025839897
135	0xbd889449	-0.06668908
136	0xbd0c1784	-0.034202114
137	0xbcba6e9b	-0.022757819
138	0xbd8b220a	-0.06793602
139	0xbd800b64	-0.062521726
140	0xbde63e54	-0.11242357
141	0xbdb558ed	-0.08854852
142	0xbdbc3b15	-0.091909565
143	0xbdb732a7	-0.08945208
144	0xbd8cc222	-0.068729654
145	0xbd765697	-0.060141172
146	0xbc406435	-0.011742641
147	0xbd3a2de4	-0.04545392
148	0xbe06957c	-0.13142961
149	0xbd9ac458	-0.07556981
150	0xbe03c2c6	-0.12867269
151	0x3d27eb10	0.040995657
152	0xbc27a5b2	-0.010232376
153	0x3d8324f9	0.06403536
154	0x3b99bc1e	0.004691615
155	0x3bdfe2e3	0.006832467
156	0xbe3bd04b	-0.18341176
157	0xbe87c1a3	-0.2651492
158	0xbe1ac017	-0.15112339
159	0xbd845370	-0.06461227
160	0x3e0678bb	0.13131993
161	0x3c12a596	0.008950612
162	0xbda5a521	-0.080881365
163	0xbdc978ad	-0.0983747
164	0xbde71d8d	-0.11284933
165	0xbc9c2d4e	-0.019064572
166	0x3bbb8de9	0.005723704
167	0x3cb03035	0.021507362
168	0xbd04c897	-0.03241786
169	0xbd1a3551	-0.037648503
170	0xbc9c5c40	-0.019086957
171	0xbcdfd396	-0.027322572
172	0x3d0ee61b	0.034887414
173	0x3d99befc	0.075071305
174	0x3d88539d	0.06656573
175	0xbd5b52e9	-0.053545866
176	0xbd86cb94	-0.06581798
177	0xbd1c8923	-0.03821672
178	0x3e0149f1	0.12625863
179	0x3db623cd	0.08893547
180	0x3d43722f	0.047716316
181	0xbd1187aa	-0.03552977
182	0xbd870638	-0.06592983
183	0xbdbb89c8	-0.09157139
184	0xbd1cd63a	-0.03829024
185	0xbd4dd368	-0.05025044
186	0xbd107cea	-0.035275377
187	0xbdd3a017	-0.10333269
188	0xbc41aba1	-0.011820705
189	0xbbb4f9be	-0.0055229357
190	0xbde1f5c7	-0.110332064
191	0xbe0ead7a	-0.13933364
192	0xbd55e45d	-0.052219737
193	0xbd41db6d	-0.0473284
194	0xbdff099c	-0.12453005
195	0xbcf93777	-0.030421956
196	0xbdcdb10a	-0.10043533
197	0xbd589f74	-0.05288644
198	0xbcfca6dd	-0.030841285
199	0xbce6c37e	-0.02816939
200	0x3d4f2210	0.050569594
201	0x3c76bb6b	0.015059332
202	0xbd05b194	-0.032640055
203	0xbdb56107	-0.08856397
204	0xbdb82dbb	-0.089930974
205	0xbc2e7b03	-0.0106494455
206	0xbcbc2734	-0.022967912
207	0xbcf43b41	-0.02981341
208	0xbdd0d62c	-0.101971
209	0xbda79815	-0.08183304
210	0xbe1d842f	-0.15382455
211	0xbdd841f2	-0.10559453
212	0xbde2d273	-0.11075296
213	0xbd196091	-0.03744561
214	0xbda46923	-0.08027866
215	0x3d0d59e0	0.03450954
216	0xbd79f0eb	-0.061020773
217	0xbe3b31e2	-0.18280748
218	0xbd5bf2da	-0.0536984
219	0xbcaa8791	-0.020816596
220	0x3dfc0890	0.12306321
221	0x3d8e3cd2	0.06945194
222	0xbd0d5918	-0.034508795
223	0xbcf45c88	-0.029829279
224	0x3cad648e	0.021166112
225	0xbcad0d35	-0.021124462
226	0xbb808c08	-0.003922943
227	0xbab2f7c0	-0.0013654158
228	0xbe12c8ce	-0.14334413
229	0xbe2e58ef	-0.17026113
230	0xbd3aacff	-0.04557514
231	0x3c346a2a	0.01101164
232	0xbd806a67	-0.06270295
233	0xbe111f8a	-0.14172187
234	0xbd3e69e7	-0.046487715
235	0xbe49483f	-0.19656466
236	0xbe5a6403	-0.21327214
237	0xbd4bd16d	-0.04976027
238	0xbb9c8876	-0.0047770096
239	0x3d069552	0.032857247
240	0xbdaf6a56	-0.08565204
241	0xbd74067c	-0.059576496
242	0xbe2ee2dd	-0.17078729
243	0xbe1a3971	-0.15060975
244	0xbca39e71	-0.019973012
245	0x3c57c1d4	0.013168771
246	0x3d628318	0.055300802
247	0xbcf9bcc2	-0.030485515
248	0xbdca77d9	-0.098861404
249	0xbd821d5d	-0.06353257
250	0x3deedb66	0.11662941
251	0x3cec6eaa	0.028861362
252	0x3d7989da	0.06092248
253	0x3d00c04b	0.031433385
254	0xbd6305e2	-0.055425532
255	0xbdcb8d89	-0.09939105

bias f4 [128]
0	0xbd3595e5	-0.044332404
1	0xbd8fa6e2	-0.07014252
2	0x3bb6b772	0.0055760676
3	0xbdd11628	-0.10209304
4	0xbceca838	-0.028888807
5	0xbd033610	-0.03203398
6	0xbc5b0802	-0.013368608
7	0xbd2df1bc	-0.042466864
8	0xbce5a08c	-0.028030656
9	0xbe21afec	-0.15789765
10	0xbd93e965	-0.07222251
11	0xbc1b5c5b	-0.0094824685
12	0xbd734afd	-0.059397686
13	0xbdabf286	-0.08395867
14	0xbd8d961d	-0.069133975
15	0x3b2bf26f	0.002623703
16	0x3cb6d0f9	0.022316443
17	0xbd3ab19a	-0.04557953
18	0xbd9ba09f	-0.075989954
19	0xbd03f035	-0.0322115
20	0xbdaed832	-0.0853733
21	0xbde64d3b	-0.11245199
22	0xbbc28736	-0.0059365286
23	0xbd012dfd	-0.031538
24	0xbd6169d1	-0.055032555
25	0xbdf0fef6	-0.1176738
26	0xbd14ae2c	-0.036298916
27	0xbd26ff71	-0.04077095
28	0xbc62516d	-0.013813359
29	0xbd05cd7a	-0.03266666
30	0xbde37ddb	-0.111079894
31	0xbcd38c11	-0.025823625
32	0xbc90fadf	-0.01769775
33	0xbd086e1c	-0.033308133
34	0xbd71b7fd	-0.059013356
35	0xbc99eb5b	-0.018788984
36	0xbde88345	-0.11353163
37	0xbd87485c	-0.06605598
38	0xbcc6b0e4	-0.02425427
39	0xbd01bc19	-0.031673525
40	0xbdbeeab3	-0.09322109
41	0xbdc74ffb	-0.09732052
42	0x38c76a8f	9.5089075e-05
43	0xbd3abc7b	-0.045589905
44	0xbc5b1505	-0.013371711
45	0xbd17efa7	-0.037093785
46	0xbd28be91	-0.041197363
47	0xbcbce6b4	-0.023059227
48	0xbc4d3ede	-0.012527196
49	0xbe1c17a5	-0.15243395
50	0x3ab1f4e5	0.0013577013
51	0xbccfcd35	-0.025366405
52	0xbc9b0c6d	-0.018926824
53	0xbca0f597	-0.019648356
54	0xbd4c113f	-0.049821135
55	0xbd2ec302	-0.042666443
56	0x3ce0ec42	0.027456407
57	0xbcda98c5	-0.026684174
58	0xbc33ecb1	-0.010981725
59	0xbd4c6478	-0.049900502
60	0xbd800e9f	-0.06252789
61	0xbc632a86	-0.013865119
62	0xbdb7f8f3	-0.0898303
63	0xbd14ca75	-0.03632589
64	0xbc44e704	-0.012017969
65	0xbd86bfc5	-0.06579546
66	0xb9ec6b65	-0.00045093443
67	0xbd939656	-0.07206409
68	0xbd88718f	-0.066622846
69	0x39e1de4c	0.00043080968
70	0xbd9153f2	-0.070960894
71	0xbcbdebaa	-0.023183662
72	0xbc857406	-0.016290676
73	0xbdb75e51	-0.08953536
74	0xbdaae049	-0.0834356
75	0xbc0248a7	-0.007951892
76	0xbd0347ba	-0.032050826
77	0xbd3cecec	-0.046124384
78	0xbd1f2383	-0.038852226
79	0xbd21eedb	-0.03953443
80	0xbd88c173	-0.066775225
81	0xbd67658c	-0.056493327
82	0xbd84badd	-0.06480954
83	0xbd80cf07	-0.06289487
84	0xbde7277c	-0.11286828
85	0xbd8af446	-0.06784873
86	0xbdc0f14c	-0.09421024
87	0xbb94cc62	-0.004540966
88	0xbc88cbab	-0.016698679
89	0xbdcd8acc	-0.10036239
90	0xbe03a2db	-0.12855093
91	0xbca4400f	-0.020050077
92	0x3c62d199	0.013843917
93	0x3b877e4b	0.0041349283
94	0xbda7dea5	-0.08196763
95	0xbd8223db	-0.06354495
96	0xbdb499fc	-0.08818433
97	0xbd5ce5ea	-0.0539302
98	0xbde01950	-0.10942328
99	0xbd741ef0	-0.059599817
100	0xbd92c8f0	-0.07167232
101	0xbd023e3d	-0.031797636
102	0x3a96b9b0	0.0011499431
103	0xbd354950	-0.04425937
104	0xbd87d805	-0.06632999
105	0xbe16e42c	-0.14735478
106	0xbbfd98ff	-0.007739186
107	0xbd656c29	-0.056011353
108	0xbcc9c0cc	-0.024628066
109	0xbda3df56	-0.08001582
110	0xbd19e4a4	-0.037571564
111	0xbdb5342d	-0.08847842
112	0xbd1c72c3	-0.038195383
113	0xbdde3a71	-0.108509906
114	0xbe08ab6a	-0.1334664
115	0xbd0586de	-0.032599322
116	0xbe1016d5	-0.1407121
117	0xbcf4bdb8	-0.029875621
118	0xbdaa519f	-0.08316349
119	0x3c13f908	0.009031542
120	0xbcf9c147	-0.03048767
121	0xbe018067	-0.12646638
122	0xbd699384	-0.057025447
123	0xbce5b2da	-0.028039385
124	0xbd795188	-0.06086877
125	0xbc99572f	-0.01871833
126	0xbd7f2773	-0.06229348
127	0xbd374cee	-0.0447511

weight f4 [10, 6272]
0	0xbb8c2383	-0.0042766943
1	0xbd2e45a0	-0.04254687
2	0xbc3f61f5	-0.01168107
3	0xbc320531	-0.010865496
4	0x3c497c59	0.012297713
5	0x3c540eb6	0.0129429605
6	0x3c55c9a9	0.013048568
7	0x3bcb2ec0	0.0062006414
8	0xbafdfce2	-0.0019377733
9	0xbbf0d3c9	-0.0073494655
10	0x3d74ca04	0.05976297
11	0x3cc2db5c	0.02378624
12	0x3d7e9596	0.062154375
13	0x3d8dcee4	0.06924227
14	0x3c0c33f4	0.008557308
15	0x3d118db3	0.035535526
16	0xbc0198d5	-0.007909973
17	0xbb693e20	-0.0035590008
18	0x3cef52d6	0.029214304
19	0xbd9d71fb	-0.07687756
20	0xbda83b96	-0.0821449
21	0x3c4a7f87	0.012359506
22	0xbde93936	-0.11387865
23	0xbdb65843	-0.08903553
24	0x3cfa99e5	0.03059096
25	0xbd0ebc5a	-0.034847595
26	0xbe08419f	-0.13306282
27	0xbe64fbbe	-0.22361657
28	0x3c8ed527	0.017435623
29	0xbc8d5a3c	-0.017254941
30	0xbdfe3987	-0.12413316
31	0xbd266d87	-0.040631797
32	0xbd049d5f	-0.032376643
33	0xbc023358	-0.007946812
34	0xbc998277	-0.018738968
35	0x3b99e1d7	0.0046961117
36	0x3c89d656	0.016825836
37	0x3d71f31e	0.059069745
38	0x3dc29a1a	0.09502049
39	0x3dbd4c11	0.09243024
40	0x3d5d9fe4	0.05410756
41	0x3d70ec79	0.058819268
42	0x3c79eb07	0.015253789
43	0xbd175143	-0.03694273
44	0x3cffc4e4	0.031221814
45	0x3d73db82	0.05953551
46	0x3d3f3697	0.04668292
47	0xbbae4320	-0.0053180605
48	0xbd1f0dfd	-0.0388317
49	0x3b5f212b	0.003404687
50	0x3d5f2a6a	0.05448381
51	0x3d00490c	0.031319663
52	0xbd268d75	-0.040662248
53	0x3c91f79b	0.017818263
54	0xbd23e670	-0.040014684
55	0xbcabb714	-0.020961322
56	0x3e01aa71	0.12662674
57	0xbc3e5c9a	-0.011618758
58	0x3c02e544	0.0079892315
59	0xbca8e93e	-0.020619031
60	0xbd92e4c9	-0.071725436
61	0xbc1c2288	-0.009529717
62	0x3c5465f3	0.01296376
63	0x3d360843	0.044441473
64	0xbd3eeea1	-0.046614293
65	0xbb9ebd3c	-0.004844336
66	0xbbdb1436	-0.006685759
67	0xbcf53f2c	-0.02993735
68	0xbc8aabcb	-0.01692762
69	0x3c940555	0.018068949
70	0xbd377783	-0.04479171
71	0x3b90c128	0.0044175573
72	0x3d42374f	0.047416028
73	0x3d778ef7	0.060439076
74	0xbe64e68c	-0.22353572
75	0x3d48edc3	0.049054872
76	0x3be065b8	0.0068480633
77	0x3cc97107	0.024590028
78	0xbc86b33c	-0.016442887
79	0x3dd9e386	0.106391
80	0x3d2956ad	0.041342426
81	0x3d4bfc76	0.049801312
82	0x3d8ea62b	0.06965288
83	0xbde4798a	-0.11155994
84	0xbcfdc0bd	-0.030975694
85	0xbdea4706	-0.11439328
86	0xbd1d94a9	-0.03847185
87	0x3dd5a586	0.10431962
88	0x3d60c6ea	0.0548772
89	0x3cf57794	0.029964246
90	0xbd9eaa72	-0.077473536
91	0xbd2db0b1	-0.042404834
92	0xbd493529	-0.049122963
93	0xbdf9de06	-0.12200551
94	0xbe4a2dae	-0.19743988
95	0xbe4c07c0	-0.19924831
96	0xbd796834	-0.06089039
97	0x3ba79137	0.0051137465
98	0x3bc4ed14	0.006009707
99	0xbc87c33f	-0.016572593
100	0xbc20b414	-0.009808559
101	0xbc6a6833	-0.01430707
102	0xbc10b5fb	-0.00883245
103	0xbc0480cc	-0.008087348
104	0xbab15d48	-0.0013531828
105	0x3c3d428a	0.011551509
106	0x3bb0414c	0.0053788777
107	0x3c0f9e70	0.008765802
108	0xbbf97347	-0.007612619
109	0xbc4ee630	-0.012628123
110	0xbc0c0ce6	-0.008547997
111	0xbc53804e	-0.012909008
112	0x3b8d24a0	0.0043073446
113	0x3ba465d0	0.00501702
114	0xbc590ec8	-0.013248153
115	0xbba30914	-0.0049754474
116	0xbb850e84	-0.0040605683
117	0xbbdf5e0b	-0.0068166307
118	0xbbbdde3a	-0.0057943137
119	0xbc3cdf92	-0.011527913
120	0xbb85b162	-0.0040799836
121	0xbc820ca8	-0.015875176
122	0xbbfe95a3	-0.007769303
123	0xbc3975bd	-0.011319575
124	0x3b4d7b27	0.0031353922
125	0xbb376ef3	-0.0027989715
126	0x3b85532e	0.0040687537
127	0xbc13dba6	-0.009024536
128	0x3c8abc4a	0.016935486
129	0xbc4de402	-0.012566568
130	0x3bd79bb4	0.0065798406
131	0x3bd469f0	0.0064823553
132	0x3bb2bb5c	0.005454464
133	0x3c2406ea	0.010011414
134	0xbb4e847c	-0.0031512072
135	0xbbb441a0	-0.005500987
136	0xbbde0589	-0.006775562
137	0xbc01426d	-0.007889372
138	0xbbc3d54e	-0.0059763556
139	0xbc536e4a	-0.012904713
140	0x3b690cc8	0.0035560597
141	0x3c117a70	0.008879289
142	0x3c0f9a06	0.008764749
143	0xbbc0854e	-0.005875266
144	0xbc3c8957	-0.011507354
145	0xbad85da8	-0.0016507404
146	0xba225c7a	-0.00061935897
147	0x3d753f74	0.059874967
148	0x3996db6a	0.00028773706
149	0xbe21c800	-0.1579895
150	0xbd8c91c8	-0.06863743
151	0xbd9c24cd	-0.07624207
152	0x3ccdc8c2	0.025120143
153	0x3c929a4c	0.01789584
154	0xbc18ed3c	-0.009333905
155	0xbd46452d	-0.048405815
156	0xbc7f20a7	-0.01557175
157	0xbdbb7e23	-0.09154918
158	0xbda9ca72	-0.082905665
159	0xbb86f79a	-0.004118872
160	0xbc2e8cd0	-0.0106536895
161	0xbd05ce70	-0.032667577
162	0xbda62b96	-0.08113782
163	0x3d9175b0	0.07102525
164	0xbcb77cfe	-0.022398468
165	0xbd8ccf5e	-0.0687549
166	0xbdaa5493	-0.083169125
167	0x3a3a7f3b	0.0007114296
168	0xbd7a9a4f	-0.061182316
169	0xbd1e3b77	-0.03863093
170	0xbe0a2838	-0.13491905
171	0xbde70a0a	-0.11281212
172	0xbe450c8e	-0.1924307
173	0xbe1cd1f2	-0.15314463
174	0xbccc697f	-0.024952648
175	0x3d17c9c4	0.037057653
176	0x3cb24014	0.02175907
177	0xbe20c64b	-0.15700643
178	0xbe2a5521	-0.16634037
179	0xbdc13128	-0.09433204
180	0x3c000cf1	0.0078155855
181	0xbd5eee55	-0.05442651
182	0xbb6a06b4	-0.0035709562
183	0xbd8253e9	-0.06363661
184	0x3d1f7581	0.03893042
185	0x3d4ccc37	0.049999442
186	0x3b7de172	0.0038739112
187	0x3c0036e7	0.00782559
188	0xbd4852c5	-0.04890706
189	0x3c13fa95	0.009031911
190	0xbd32254c	-0.0434926
191	0x3bebc603	0.0071952357
192	0x3d25145c	0.04030262
193	0x3cc6bf81	0.024261238
194	0xbd800d90	-0.06252587
195	0xbb2fbd8e	-0.0026815864
196	0xbd412854	-0.0471576
197	0x3d2cbe00	0.042173386
198	0x3d2ea69c	0.04263936
199	0x3d05ff5d	0.032714237
200	0x3cb16476	0.021654349
201	0xbd8e537a	-0.06949516
202	0xbbc2017a	-0.005920586
203	0x3ba2334d	0.004949963
204	0xbd3264f0	-0.043553293
205	0x3cae2cfe	0.021261688
206	0xbdadc94e	-0.084856614
207	0x3d32eb34	0.04368134
208	0xbd2c0636	-0.04199811
209	0xbd9c5a1d	-0.07634375
210	0xbd08e3eb	-0.033420485
211	0xbc7d1dc8	-0.015448995
212	0x3c235e0d	0.009971154
213	0x3c111a51	0.008856372
214	0x3d4942ee	0.049136095
215	0x3c4eb0e3	0.012615415
216	0xbd99b99c	-0.07506105
217	0xbd49f784	-0.049308315
218	0xbd180ff8	-0.037124604
219	0xbd82c54b	-0.06385287
220	0xbd3ca564	-0.046056166
221	0xbb806f0a	-0.003919487
222	0x3c83d1bb	0.016091218
223	0xbd7be1da	-0.061494686
224	0xbcb6a74c	-0.02229657
225	0xbcb14d1f	-0.02164322
226	0xbd25abe8	-0.040447146
227	0xbd6e1013	-0.0581208
228	0xbdc09a14	-0.09404388
229	0x3c62cec2	0.01384324
230	0x3c5efeef	0.013610586
231	0xbc3002ea	-0.010742882
232	0xbc50c107	-0.012741334
233	0x3d50e34e	0.050998025
234	0x3c8482d3	0.016175663
235	0xbc31af0f	-0.01084496
236	0xbc0cade4	-0.008586381
237	0xbb8fc77a	-0.004387793
238	0xbd2244e3	-0.039616477
239	0x3cc27a66	0.023740005
240	0x3bda0eb3	0.0066545843
241	0x3d8a1b0e	0.067434415
242	0xbc3da79c	-0.011575606
243	0x3c6c7439	0.0144320065
244	0xbd02f765	-0.031974215
245	0xbc1975c4	-0.009366456
246	0xbc3c8f0c	-0.011508714
247	0xbc73868d	-0.014863622
248	0xbac80f9f	-0.0015263445
249	0xbb0ec30a	-0.0021783733
250	0xbc6e3006	-0.014537817
251	0xbc32e762	-0.010919424
252	0xbbcdeda0	-0.0062844306
253	0x3a27bae8	0.00063983956
254	0xbc9a869f	-0.01886302
255	0xbc35cfc9	-0.011096903

bias f4 [10]
0	0x3c20592b	0.009786884
1	0x3d32e4b0	0.043675125
2	0xbc9f71b6	-0.019463401
3	0xbd149e90	-0.03628403
4	0xbc0af8fc	-0.008482214
5	0x3ca41cc9	0.020033257
6	0xbccd82e6	-0.025086831
7	0xbc0232e0	-0.0079467
8	0x3cd8cfa1	0.026466193
9	0xbd34a51d	-0.044102777
